/data5/home/saihadnoor/anaconda3/lib/python3.11/site-packages/torch/nn/modules/transformer.py:282: UserWarning: enable_nested_tensor is True, but self.use_nested_tensor is False because encoder_layer.self_attn.num_heads is odd
  warnings.warn(f"enable_nested_tensor is True, but self.use_nested_tensor is False because {why_not_sparsity_fast_path}")
Experiment sp500 With Entire KG P24 W=20 Run 1 RGAT - No rank loss - Adam W - LR 3e-4
--- File exists: Loading Dataset ---
Tau:  5 Tau Position:  0
Phase:  1
Trans(
  (embeddings): Embedding(105, 10)
  (transformer_encoder_first): TransformerEncoder(
    (layers): ModuleList(
      (0): TransformerEncoderLayer(
        (self_attn): MultiheadAttention(
          (out_proj): NonDynamicallyQuantizableLinear(in_features=20, out_features=20, bias=True)
        )
        (linear1): Linear(in_features=20, out_features=1024, bias=True)
        (dropout): Dropout(p=0.1, inplace=False)
        (linear2): Linear(in_features=1024, out_features=20, bias=True)
        (norm1): LayerNorm((20,), eps=1e-05, elementwise_affine=True)
        (norm2): LayerNorm((20,), eps=1e-05, elementwise_affine=True)
        (dropout1): Dropout(p=0.1, inplace=False)
        (dropout2): Dropout(p=0.1, inplace=False)
      )
    )
  )
  (fc1): Linear(in_features=20, out_features=1024, bias=True)
  (fc2): Linear(in_features=1024, out_features=20, bias=True)
  (pred): Linear(in_features=30940, out_features=442, bias=True)
  (pred2): Linear(in_features=4420, out_features=442, bias=True)
  (hold_pred): Linear(in_features=70, out_features=1, bias=True)
  (conv1): HEATConv(20, 8, heads=4)
  (conv2): HEATConv(32, 16, heads=4)
  (lin): Linear(in_features=64, out_features=50, bias=True)
  (lin2): Linear(in_features=50, out_features=16, bias=True)
  (rel_type_embeddings): Embedding(59, 16)
  (month_embeddings): Embedding(13, 16, padding_idx=0)
  (day_embeddings): Embedding(32, 16, padding_idx=0)
  (hour_embeddings): Embedding(25, 16, padding_idx=0)
  (minutes_embeddings): Embedding(61, 16, padding_idx=0)
  (sec_embeddings): Embedding(61, 16, padding_idx=0)
  (ent_embeddings): Embedding(6502, 20)
)
Epoch: 1
/data5/home/saihadnoor/anaconda3/lib/python3.11/site-packages/torchmetrics/utilities/prints.py:70: FutureWarning: Importing `retrieval_normalized_dcg` from `torchmetrics.functional` was deprecated and will be removed in 2.0. Import `retrieval_normalized_dcg` from `torchmetrics.retrieval` instead.
  _future_warning(

[TRAINING] Epoch: 1 Loss: 2.4652944369614125 NDCG 0.37616267800331116
…
